…
experience replay buffer.
In Chapter 8, DQN Extensions, we will look at various approaches found by 
researchers since 2015 that can help to increase both training speed and data 
efficiency. Chapter 9, Ways to Speed up RL, will be devoted to engineering tricks to 
speed up RL methods' performance. Nevertheless, for Atari, you will need resources 
and patience. The following figure shows charts with training dynamics:
Figure 6.4: Dynamics of average reward calculated over the last 100 episodes
In the beginning of the training:
rl_book_samples/Chapter06$ ./02_dqn_pong.py –-cuda
  (conv): Sequential(
    (0): Conv2d(4, 32, kernel_size=(8, 8), stride=(4, 4))
    (1): ReLU()

===== PAGE 184 =====
Chapter 6
[ 157 ]
    (2): Conv2d(32, 64, kernel_size=(4, 4), stride=(2, 2))
    (3): ReLU()
    (4): Conv2d(64, 64, kernel_size=(3, 3), stride=(1, 1))
    (5): ReLU()
  )
  (fc): Sequential(
    (0): Linear(in_features=3136, out_features=512, bias=True)
    (1): ReLU()
    (2): Linear(in_features=512, out_features=6, bias=True)
  )
)
971: done 1 games, reward -21.000, eps 0.99, speed 890.81 f/s
1733: done 2 games, reward -21.000, eps 0.98, speed 984.59 f/s
2649: done 3 games, reward -20.667, eps 0.97, speed 987.53 f/s
Best reward updated -21.000 -> -20.667, saved
3662: done 4 games, reward -20.500, eps 0.96, speed 921.47 f/s
Best reward updated -20.667 -> -20.500, saved
4619: done 5 games, reward -20.600, eps 0.95, speed 965.86 f/s
…
        actions = np.clip(actions, -1, 1)
        return actions, agent_states
The agent that converts the state into the action also works by simply obtaining 
the predicted mean from the state and applying the noise with variance, dictated 
by the current value of the logstd parameter.

===== PAGE 628 =====
Chapter 19
[ 601 ]
Results
By default, the RoboschoolHalfCheetah-v1 environment is used, but to change 
it, you can pass the -e argument with the desired environment ID. So, to start 
HalfCheetah optimization, you should use the following command line:
$ ./01_train_a2c.py --cuda -n t1
ModelActor(
  (mu): Sequential(
    (0): Linear(in_features=26, out_features=64, bias=True)
    (1): Tanh()
    (2): Linear(in_features=64, out_features=64, bias=True)
    (3): Tanh()
    (4): Linear(in_features=64, out_features=6, bias=True)
    (5): Tanh()
  )
)
ModelCritic(
  (value): Sequential(
    (0): Linear(in_features=26, out_features=64, bias=True)
    (1): ReLU()
    (2): Linear(in_features=64, out_features=64, bias=True)
    (3): ReLU()
    (4): Linear(in_features=64, out_features=1, bias=True)
  )
)
Test done in 0.14 sec, reward 3.199, steps 18
854: done 44 episodes, mean reward -9.703, speed 853.93 f/s
2371: done 124 episodes, mean reward -6.723, speed 1509.12 f/s
3961: done 204 episodes, mean reward -4.228, speed 1501.50 f/s
5440: done 289 episodes, mean reward -8.149, speed 1471.60 f/s
6969: done 376 episodes, mean reward -6.250, speed 1501.39 f/s
…
I2A model: the value loss is the MSE between the predicted and discounted reward 
approximated by the Bellman equation, while the policy gradient is approximated 
by the advantage multiplied by log probability of the chosen action.
Experiment results
In this section, we will take a look at the results of our multistep training process.
The baseline agent
To train the agent, run Chapter22/01_a2c.py with the optional --cuda flag to 
enable the graphics processing unit (GPU) and the required -n option with the 
experiment name used in TensorBoard and in a directory name to save the models.
Chapter22$ ./01_a2c.py --cuda -n tt
AtariA2C(
  (conv): Sequential(
    (0): Conv2d(2, 32, kernel_size=(8, 8), stride=(4, 4))
    (1): ReLU()
    (2): Conv2d(32, 64, kernel_size=(4, 4), stride=(2, 2))
    (3): ReLU()
    (4): Conv2d(64, 64, kernel_size=(3, 3), stride=(1, 1))
    (5): ReLU()
  )
  (fc): Sequential(
    (0): Linear(in_features=3136, out_features=512, bias=True)
    (1): ReLU()
  )
  (policy): Linear(in_features=512, out_features=4, bias=True)
  (value): Linear(in_features=512, out_features=1, bias=True)

===== PAGE 733 =====
Beyond Model-Free – Imagination
[ 706 ]
)
4: done 13 episodes, mean_reward=0.00, best_reward=0.00, speed=696.72
9: done 12 episodes, mean_reward=0.00, best_reward=0.00, speed=721.23
10: done 2 episodes, mean_reward=1.00, best_reward=1.00, speed=740.74
13: done 6 episodes, mean_reward=0.00, best_reward=1.00, speed=735.17
In 300k training iterations, which took 15 hours, the A2C was able to reach the 
…
[ 707 ]
Figure 22.7: The advantage (left) and entropy loss (right) during the training
 
Figure 22.8: The policy loss (left) and value loss (right)
Training EM weights
To train the EM, you need to specify the policy produced during the baseline agent 
training. In my experiments, I took the policy from the partially trained agent to 
increase the potential diversity of the EM training data. Another way to increase the 
sample diversity would be to use several policies for data generation.
$ ./02_imag.py --cuda -m saves/01_a2c_t1/best_0400.333.dat -n t1
EnvironmentModel(
  (conv1): Sequential(
    (0): Conv2d(6,64,kernel_size=(4,4),stride=(4, 4),padding=(1,1))
    (1): ReLU()

===== PAGE 735 =====
Beyond Model-Free – Imagination
[ 708 ]
    (2): Conv2d(64,64,kernel_size=(3,3),stride=(1,1),padding=(1,1))
    (3): ReLU()
  )
  (conv2): Sequential(
    (0): Conv2d(64,64,kernel_size=(3,3),stride=(1,1),padding=(1,1))
    (1): ReLU()
  )
  (deconv): ConvTranspose2d(64,1,kernel_size=(4,4),stride=(4,4))
  (reward_conv): Sequential(
    (0): Conv2d(64, 64, kernel_size=(3, 3), stride=(1, 1))
    (1): MaxPool2d(kernel_size=2,stride=2,padding=0,dilation=1)
    (2): ReLU()
    (3): Conv2d(64, 64, kernel_size=(3, 3), stride=(1, 1))
    (4): MaxPool2d(kernel_size=2, stride=2, padding=0, dilation=1)
    (5): ReLU()
  )
  (reward_fc): Sequential(
    (0): Linear(in_features=576, out_features=128, bias=True)
    (1): ReLU()
    (2): Linear(in_features=128, out_features=1, bias=True)
  )
)
Best loss updated: inf -> 1.7988e-02
Best loss updated: 1.7988e-02 -> 1.1621e-02
Best loss updated: 1.1621e-02 -> 9.8923e-03
Best loss updated: 9.8923e-03 -> 8.6424e-03
...
In 200k training iterations, the loss almost stopped decreasing. The EM model with 
the smallest loss could be used for final training of the I2A model. The EM training 
dynamics follow.

===== PAGE 736 =====
Chapter 22
[ 709 ]
Figure 22.9: The EM training loss: observations (left) and reward (right)
Training with the I2A model
The imagination path comes with a significant computation cost, which is 
proportional to the number of rollout steps performed. I experimented with several 
values for this hyperparameter. For Breakout, there is not much difference between 
five and three steps, but the speed is almost two times faster.
$ ./03_i2a.py --cuda -n t1 --em saves/02_env_t1/best_9.78e-04.dat
I2A(
  (conv): Sequential(
    (0): Conv2d(2, 32, kernel_size=(8, 8), stride=(4, 4))
    (1): ReLU()
    (2): Conv2d(32, 64, kernel_size=(4, 4), stride=(2, 2))
    (3): ReLU()
    (4): Conv2d(64, 64, kernel_size=(3, 3), stride=(1, 1))
    (5): ReLU()
  )
  (fc): Sequential(
    (0): Linear(in_features=4160, out_features=512, bias=True)
    (1): ReLU()
  )
  (policy): Linear(in_features=512, out_features=4, bias=True)
  (value): Linear(in_features=512, out_features=1, bias=True)
  (encoder): RolloutEncoder(

===== PAGE 737 =====
Beyond Model-Free – Imagination
[ 710 ]
    (conv): Sequential(
      (0): Conv2d(1, 32, kernel_size=(8, 8), stride=(4, 4))
      (1): ReLU()
      (2): Conv2d(32, 64, kernel_size=(4, 4), stride=(2, 2))
      (3): ReLU()
      (4): Conv2d(64, 64, kernel_size=(3, 3), stride=(1, 1))
      (5): ReLU()
    )
    (rnn): LSTM(3137, 256)
  )
)
2: done 1 episodes, mean_reward=0, best_reward=0, speed=160.41 f/s
4: done 12 episodes, mean_reward=0, best_reward=0, speed=190.84 f/s
7: done 1 episodes, mean_reward=0, best_reward=0, speed=169.94 f/s
...
In 300k training steps, which took more than two days on my hardware, I2A was 
able to reach the mean reward of 500 on the test, which shows better dynamics than 
…
